cifar10-feedforward.pth (torch, 203301 bytes, 6 tensors)

linear1.weight f4 [16, 3072]
0.012864174 0.0027800745 0.009879996 0.015111328 0.009028716 0.015793432 -0.0016958055 -0.0020539921
0.00037460378 -0.011799955 0.0042349007 -0.013846809 0.004023477 0.0146955745 -0.003170139 0.014541959
0.0029399265 0.013385611 -0.008194055 -0.001449144 -0.012263479 -0.0063447105 0.014469981 0.0065888283
-3.1700823e-05 -0.0019920971 -0.00029812392 -0.00765 0.0064500356 -0.0046675815 -0.008453894 0.013521421
-0.015130203 -0.0069528595 -0.0110459495 -0.008440689 -0.016181866 -0.00010201242 0.008020272 0.017684057
-0.007314379 -0.015634723 -0.003030859 0.0009041402 -0.014266922 0.0026024794 -0.007528879 0.016095392
0.006223676 0.0072177486 0.0014029149 0.017078938 -0.016405249 -0.0029967907 -0.0057722125 -0.018045703
0.016626725 0.00881513 0.011783262 0.007888362 -0.003492901 0.0130877895 0.0019061037 -0.0010434946
0.015577728 0.0053954595 0.017288473 0.016365595 0.011987159 0.016924541 0.015643891 0.002258475
-0.010377288 0.015313158 0.0036702144 0.0034217702 0.012508676 -0.003989191 -0.018730326 -0.014689046
0.007044578 0.0043373946 -0.014721699 -0.012913249 -0.003162368 0.008456333 -0.009429427 0.009485701
0.004098623 -0.0010664565 0.0013752568 -0.0003577842 -0.009502663 -0.0019283558 -0.017264728 -0.015956089
0.007901678 -0.015227367 -0.00635957 0.0031239733 -0.008895744 0.012052468 -0.0015725733 -0.0066998363
0.017112153 -0.0082424 0.0052745463 -0.011650241 -0.0045612245 -0.0082980655 -0.0072560166 0.0016357708
0.008002203 0.0042953035 -0.006997709 0.0133060105 0.00627214 0.013085779 -0.018352814 -0.016758673
-0.007561959 0.002596742 0.0155310435 -0.0054054153 -0.016919557 -0.014941782 -0.012462874 0.0135813225
-0.016314236 -0.0057772566 -0.008450132 0.0031955056 0.010737613 -0.011888327 0.01493934 0.0019483855
0.0037223212 0.0126890885 -0.01830242 -0.015743943 0.00531466 -0.007689667 0.01412391 -0.00802321
0.006481258 -0.011229707 0.0065848976 -0.016794674 -0.016525967 -0.0027445771 -0.00709981 -0.0154839195
0.0030394485 -0.0022957248 0.015762582 -0.0039051822 -0.01736006 -0.010996597 -0.0049233316 -0.0051620193
5.760207e-05 -0.017449241 0.004775213 0.008911224 -0.017958064 0.010317737 0.0015428511 -0.003572863
-0.015260965 0.006463011 0.015482822 0.014099572 0.010343659 -0.0057644215 -0.0066942475 -0.005088822
0.0067447126 -0.0066793445 0.015217345 -0.004557481 -0.0043147327 0.00016769441 0.0026528956 -0.016956741
-0.00038525183 -0.009426096 0.006897799 0.0011918796 0.015798498 -0.015482862 0.0129696615 -0.0022082673
0.003322188 -0.0038291188 0.008319473 0.009247623 0.009228475 0.012979864 -0.011631792 0.0015079116
-0.009546753 0.0041373083 -0.0022334708 0.008007029 0.013979202 0.006664738 -0.02127368 -0.016986715
-0.015382444 -0.010270966 0.014144609 0.0061272434 0.01307691 -0.008168094 -0.008513803 -0.006595958
-0.01882159 0.016039997 0.013488466 0.0018017059 -0.006411073 -0.016573105 0.00743047 -0.00045722944
0.0005441243 0.01029107 0.005161239 0.012753669 0.0028977122 -0.013392753 -0.015290873 -0.013942064
0.009995675 -0.001245399 0.0055040363 -0.016690318 -0.016707981 -0.0011913195 0.013739098 0.0146173835
0.003813536 -0.019429546 0.0042344616 -0.02059851 -0.017026097 -0.004006666 0.004022736 0.009374047
-0.0048520165 0.0061757797 -0.0043234318 0.014897231 0.0050326195 -0.01813465 0.0008064979 0.0004196209
00000000: 42c4 523c e931 363b b5df 213c 8195 773c
00000010: 2eed 133c 3a61 813c ca45 deba 459c 06bb
00000020: 7866 c439 9954 41bc ecc4 8a3b badd 62bc
00000030: 5fd7 833b b5c5 703c 1bc2 4fbb 6641 6e3c
00000040: c8ab 403b 524f 5b3c 5c40 06bc 34f1 bdba
00000050: c2ec 48bc 4ae7 cfbb 8013 6d3c 19e7 d73b
00000060: 80f6 04b8 d88d 02bb 844d 9cb9 daac fabb
00000070: d25a d33b 83f2 98bb 3482 0abc f388 5d3c
00000080: ace4 77bc d0d4 e3bb 12fa 34bc d14a 0abc
00000090: d58f 84bc 80ef d5b8 7567 033c 28de 903c
000000a0: 75ad efbb 6414 80bc 60a1 46bb d203 6d3a
000000b0: cfbf 69bc 5c8e 2a3b d1b4 f6bb 7cda 833c
000000c0: faef cb3b dd82 ec3b 03e2 b73a 21e9 8b3c
000000d0: 4d64 86bc ce65 44bb d424 bdbb 95d4 93bc
000000e0: c534 883c 566d 103c 950e 413c 303e 013c
000000f0: 28e9 64bb 2b6e 563c 3ad6 f93a dec5 88ba
00000100: ba39 7f3c 65cc b03b 8ea0 8d3c 2411 863c
00000110: ca65 443c 56a5 8a3c 9e27 803c ec02 143b
00000120: 8005 2abc 0ae4 7a3c fb87 703b c73f 603b
00000130: 31f1 4c3c c2b7 82bb 5770 99bc 53aa 70bc
00000140: 34d6 e63b b420 8e3b 4833 71bc 1892 53bc
00000150: bb3f 4fbb 6e8c 0a3c e27d 1abc ea69 1b3c
00000160: be4d 863b 58c8 8bba f641 b43a fc94 bbb9
00000170: 0fb1 1bbc e2c0 fcba c26e 8dbc 58b6 82bc
00000180: 0a76 013c 357c 79bc f163 d0bb 93bb 4c3b
00000190: 74bf 11bc b777 453c ce1e ceba 4d8a dbbb
000001a0: c92e 8c3c 220b 07bc 1ad6 ac3b a7e0 3ebc
000001b0: 5376 95bb 9cf4 07bc e1c3 edbb 5c67 d63a
000001c0: ac1b 033c 9ebf 8c3b 0a4d e5bb 7401 5a3c
000001d0: 8686 cd3b bc65 563c a458 96bc 7c49 89bc
000001e0: 4fca f7bb 1a2e 2a3b eb75 7e3c e91f b1bb
000001f0: e29a 8abc 60ce 74bc 1531 4cbc 3284 5e3c
00000200: 6fa5 85bc 244f bdbb 6c72 0abc b06b 513b
00000210: d0ec 2f3c 42c7 42bc 22c4 743c f860 ff3a
00000220: 30f2 733b e5e5 4f3c f5ee 95bc 71f9 80bc
00000230: 9926 ae3b 9af9 fbbb f967 673c c873 03bc
00000240: bc60 d43b cefc 37bc 20c6 d73b fc94 89bc
00000250: 7761 87bc 5dde 33bb 86a5 e8bb 44b0 7dbc
00000260: 7c31 473b df73 16bb 8820 813c 16ee 7fbb
00000270: af36 8ebc 122b 34bc e653 a1bb 2826 a9bb
00000280: c099 7138 b6f1 8ebc 6479 9c3b 6200 123c
00000290: ca1c 93bc ba0b 293c 7e39 ca3a b226 6abb
000002a0: 2009 7abc aac7 d33b aaab 7d3c e401 673c
000002b0: 7378 293c 79e3 bcbb 6b5b dbbb 22c0 a6bb
000002c0: c002 dd3b 67de dabb 2c52 793c ec56 95bb
000002d0: 9a62 8dbb 20d7 2f39 34dc 2d3b dde8 8abc
000002e0: a0fb c9b9 ea6f 1abc ef06 e23b d838 9c3a
000002f0: da6b 813c d4ab 7dbc b47e 543c 94b8 10bb
00000300: 11b9 593b f4f1 7abb 664e 083c 5883 173c
00000310: 0833 173c 7fa9 543c 4693 3ebc 1ea5 c53a
00000320: fc69 1cbc 4292 873b 6c5f 12bb ea2f 033c
00000330: 0609 653c e063 da3b 2446 aebc b927 8bbc
00000340: a506 7cbc 8e47 28bc cabe 673c 0bc7 c83b
00000350: 8940 563c 78d3 05bc 7a7d 0bbc e822 d8bb
00000360: bc2f 9abc 5066 833c bafe 5c3c 3827 ec3a
00000370: fa13 d2bb 52c4 87bc 4d7b f33b 4cb8 efb9
00000380: 90a3 0e3a e09b 283c 9c1f a93b c4f4 503c
00000390: 8be7 3d3b 476d 5bbc 9286 7abc 416d 64bc
000003a0: e6c4 233c a83c a3ba 345b b43b 22ba 88bc
000003b0: 2ddf 88bc 0d26 9cba f419 613c c07d 6f3c
000003c0: 84ec 793b b62a 9fbc 3dc1 8a3b 35be a8bc
000003d0: 507a 8bbc 5a4a 83bb 28d1 833b 9a95 193c
000003e0: aafd 9ebb 325e ca3b 93ab 8dbb 8413 743c
000003f0: ace8 a43b 1e8f 94bc 286b 533a 9000 dc39

linear1.bias f4 [16]
0.0068527167 0.003918494 0.005161312 0.017282251 0.7807716 -0.008361617 -0.027873956 0.00779758
0.0035704477 -0.14361297 -0.035605885 -0.010745679 0.017844617 0.0032045562 0.010838346 -0.0027633472
00000000: c18c e03b b666 803b 3920 a93b 8293 8d3c
00000010: a6e0 473f 2aff 08bc ec57 e4bc d882 ff3b
00000020: 2cfe 693b 470f 13be 7ad7 11bd a50e 30bc
00000030: e02e 923c 8803 523b 5193 313c 4619 35bb

linear2.weight f4 [32, 16]
-0.14032923 0.117956266 -0.10546494 -0.18921398 -0.009845976 0.230289 0.15621792 0.1331813
0.2358915 -0.15342478 -0.022740126 0.0053630145 -0.121781915 0.1075707 0.14579391 0.059341144
-0.24276087 -0.13221122 -0.13415062 0.12254432 -0.10166335 -0.075049914 -0.05710256 -0.22552252
-0.061609507 0.093135305 -0.13492888 -0.12543823 0.18485443 -0.18464828 -0.23694411 -0.16660997
-0.13843104 0.20895736 -0.1624188 -0.2063606 0.19088416 0.007039383 0.054734115 0.10091305
0.120205976 -0.08281602 -0.22807851 -0.23245516 0.03275143 -0.14917569 -0.19838095 0.1506368
0.23545171 -0.2161537 0.042581055 -0.16236639 -0.266217 -0.18917115 0.096752144 -0.18698838
0.23933837 0.14279999 -0.108304344 -0.081445605 0.2054301 0.20997475 -0.11277917 -0.10679142
0.013267526 -0.080841705 0.15002245 0.17217052 -0.02975426 0.2166334 0.18272965 0.20365691
0.11777765 -0.03576387 -0.013256669 0.201029 -0.1891199 0.18253472 -0.031564597 0.11530869
0.14757366 0.09345564 0.026684158 0.093554735 -0.08603598 -0.04584308 0.20138094 -0.16257848
0.23202805 0.15835953 0.05470393 0.042582955 0.18295687 -0.14302658 0.1974105 0.053618006
0.029208964 0.1267391 0.083246 0.091462865 -0.12989856 -0.19327578 -0.19009642 0.051048264
0.0667969 -0.0015559916 -0.19709818 0.048511334 0.04863963 0.12828058 0.09571518 -0.08939241
-0.15853623 0.1969316 0.24570797 0.2501787 -0.43032953 -0.22227997 0.11700492 -0.0402242
-0.18449649 -0.15549865 -0.24910949 -0.00040709163 0.021495441 -0.18037172 -0.121474855 -0.076840915
0.19221266 0.066894405 0.07873938 -0.10002363 -0.20199105 -0.048182726 -0.04000983 0.07376835
0.1160222 -0.0059663653 -0.17824087 -0.17030697 -0.054405514 0.08002159 0.12413496 -0.15795246
0.020534396 -0.19868967 -0.03543836 -0.06630242 -0.03986171 0.04025343 -0.01984343 0.007928461
0.0047832727 -0.1958974 0.030244606 0.031056434 -0.18841037 0.060445756 -0.09129062 -0.13618812
0.10279635 -0.02429418 -0.1534967 0.17895019 -0.0020100363 0.20402084 -0.17721023 0.2146972
-0.106091 -0.22252706 -0.11208156 0.16175468 -0.015764682 -0.0006756364 -0.062239915 -0.18911043
-0.06482398 0.074614875 -0.07543946 0.22370358 -0.18612836 -0.21794656 0.13523217 0.18209077
0.24699427 0.04219011 0.19920267 0.080515586 0.14958668 0.2431461 0.044954862 -0.07781943
-0.22302379 -0.18598406 -0.14103043 -0.23045 -0.018067557 -0.1981914 0.19857684 -0.18037623
-0.15327579 -0.07278115 -0.091365844 -0.026304118 0.06393332 -0.06871098 -0.051299762 0.23544286
-0.08172766 -0.017410824 -0.21943213 0.059015587 -0.07114544 -0.14304253 -0.0927075 -0.048500933
0.0035120628 0.04926599 -0.20650792 0.20019835 -0.028047666 -0.06580614 -0.05247967 0.04542299
-0.091148354 0.24847542 -0.014253236 -0.0005544008 -1.3386604 0.14843842 0.033943135 0.2470954
0.05803303 -0.08794719 0.09056912 0.19488655 -0.05680848 -0.0031839567 -0.20969312 0.029483534
-0.1845179 -0.2053478 0.21569367 -0.023371708 -0.23443726 -0.04037716 -0.025658652 -0.12147268
-0.23858774 0.09673703 -0.0434423 0.097680315 -0.21520942 0.16582222 0.034757826 0.24469823
00000000: 77b2 0fbe 0e93 f13d 01fe d7bd 4fc1 41be
00000010: 0451 21bc e1d0 6b3e 97f7 1f3e ae60 083e
00000020: 8b8d 713e 631b 1dbe 8049 babc 3abc af3b
00000030: cc68 f9bd 074e dc3d 004b 153e b30f 733d
00000040: 4e96 78be 6162 07be c85e 09be 84f8 fa3d
00000050: e034 d0bd c5b3 99bd 60e4 69bd 60ef 66be
00000060: 405a 7cbd b9bd be3d cc2a 0abe e172 00be
00000070: 7b4a 3d3e 7014 3dbe 7aa1 72be ce9b 2abe
00000080: dec0 0dbe ebf8 553e 1d51 26be 3150 53be
00000090: 2377 433e a0aa e63b e130 603d 80ab ce3d
000000a0: 8d2e f63d 729b a9bd 6a8d 69be ba08 6ebe
000000b0: 5d26 063d 83c1 18be 6024 4bbe 8940 1a3e
000000c0: 411a 713e 6557 5dbe 7969 2e3d 6043 26be
000000d0: 984d 88be 15b6 41be fd25 c63d e279 3fbe
000000e0: 1e15 753e 293a 123e abce ddbd f4cc a6bd
000000f0: 455c 523e 9f03 573e c4f8 e6bd 76b5 dabd
00000100: 0a60 593c 5690 a5bd 7c9f 193e 784d 303e
00000110: 35bf f3bc 25d5 5d3e 7b1d 3b3e 708b 503e
00000120: 6935 f13d 237d 12bd 8032 59bc 8cda 4d3e
00000130: a6a8 41be 62ea 3a3e e149 01bd f626 ec3d
00000140: 8d1d 173e ac65 bf3d bc98 da3c a099 bf3d
00000150: a233 b0bd f4c5 3bbd ce36 4e3e f97a 26be
00000160: c398 6d3e 0029 223e 3a11 603d 776b 2e3d
00000170: 0c59 3b3e 8f75 12be fa25 4a3e 8e9e 5b3d
00000180: a347 ef3c e5c7 013e e17c aa3d e250 bb3d
00000190: 2104 05be 16ea 45be a3a8 42be fc17 513d
000001a0: d0cc 883d 6af2 cbba 1bd4 49be d2b3 463d
000001b0: 593a 473d fc5b 033e 5206 c43d 5e13 b7bd
000001c0: 5257 22be 70a8 493e df9a 7b3e 6c17 803e
000001d0: 2754 dcbe 5c9d 63be 47a0 ef3d 21c2 24bd
000001e0: a6ec 3cbe 0a3b 1fbe 8f16 7fbe ea6e d5b9
000001f0: 3517 b03c 5db3 38be cfc7 f8bd c55e 9dbd
00000200: 65d3 443e efff 883d 1d42 a13d 30d9 ccbd
00000210: bed6 4ebe 405b 45bd 59e1 23bd dc13 973d
00000220: 0c9d ed3d 8081 c3bb c684 36be f364 2ebe
00000230: 51d8 5ebd 5ce2 a33d 783a fe3d 4abe 21be
00000240: c037 a83c 4e75 4bbe d027 11bd 90c9 87bd
00000250: 0846 23bd c8e0 243d b08e a2bc 60e6 013c
00000260: 00bd 9c3b 5499 48be 89c3 f73c 106a fe3c
00000270: a6ee 40be f895 773d 94f6 babd e674 0bbe
00000280: e586 d23d 9704 c7bc 3d2e 1dbe b83e 373e
00000290: d0ba 03bb d7ea 503e 9976 35be 95d9 5b3e
000002a0: 3d46 d9bd 22de 63be 048b e5bd 05a3 253e
000002b0: ef24 81bc 311d 31ba 48ef 7ebd 2aa6 41be
000002c0: 6fc2 84bd afcf 983d 0180 9abd 8d12 653e
000002d0: 6f98 3ebe 622d 5fbe 4d7a 0a3e 0176 3a3e
000002e0: 11ec 7c3e 89cf 2c3d c9fb 4b3e 5be5 a43d
000002f0: 402d 193e 4bfb 783e 9722 383d cb5f 9fbd
00000300: 5960 64be 9b72 3ebe 486a 10be 16fb 6bbe
00000310: 6a02 94bc b0f2 4abe ba57 4b3e 8cb4 38be
00000320: 54f4 1cbe 490e 95bd 041e bbbd bc7b d7bc
00000330: 79ef 823d 58b8 8cbd b31f 52bd ef17 713e
00000340: d560 a7bd 25a1 8ebc d1b2 60be 54ba 713d
00000350: b3b4 91bd be79 12be 6edd bdbd eaa8 46bd
00000360: a32a 663b 22cb 493d d076 53be cc00 4d3e
00000370: 38c4 e5bc 5fc5 86bd ecf4 56bd 750d 3a3d
00000380: fdab babd 5770 7e3e 6886 69bc 3555 11ba
00000390: 3959 abbf 3e00 183e f507 0b3d 9406 7d3e
000003a0: 0bb4 6d3d a81d b4bd 4e7c b93d 5790 473e
000003b0: 02b0 68bd eea9 50bb cbb9 56be 7487 f13c
000003c0: 43f2 3cbe b246 52be cdde 5c3e 0676 bfbc
000003d0: 5210 70be 8562 25bd 1832 d2bc abc6 f8bd
000003e0: 5850 74be 101e c63d 8ef0 31bd 9e0c c83d
000003f0: dc5f 5cbe 4dcd 293e 395e 0e3d 2c92 7a3e

linear2.bias f4 [32]
-0.061383255 -0.07468853 -0.1901795 0.5562438 -0.010524302 -0.052066997 -0.03302224 0.7780138
-0.14176972 -0.21880499 -0.20179482 -0.08777593 -0.09911879 -0.016466493 1.4934357 -0.09123158
1.9457676 -0.30360818 -0.2178647 0.050077464 -0.23068552 -0.11068458 -0.00017225549 -0.03916099
-0.08705883 -0.30195698 -0.018130742 -0.07835925 0.079239555 -0.25891244 -0.11491278 -0.1481411
00000000: 026d 7bbd 4df6 98bd 6abe 42be fe65 0e3f
00000010: 1f6e 2cbc 3444 55bd 5442 07bd ea2b 473f
00000020: 152c 11be 6a0e 60be 4da3 4ebe dec3 b3bd
00000030: cbfe cabd bde4 86bc e728 bf3f 9fd7 babd
00000040: ea0e f93f 8872 9bbe ed17 5fbe 071e 4d3d
00000050: d338 6cbe 99ae e2bd 7b9f 34b9 4667 20bd
00000060: e64b b2bd 1b9a 9abe ec86 94bc d17a a0bd
00000070: 5948 a23d 2c90 84be 6457 ebbd 4db2 17be

linear3.weight f4 [10, 32]
-0.018421682 -0.04525132 -0.022924116 0.111754626 -0.008575673 0.10651816 -0.0590298 0.15410398
0.16565497 0.14505008 0.012545526 0.048478432 0.07910373 -0.020901535 0.20303023 -0.022622133
0.077363215 -0.027957931 0.045944333 0.29143673 -0.034552697 0.21001399 0.1073391 -0.12823923
0.103556484 0.26988938 0.11787072 -0.1340698 0.13484621 0.12970112 -0.069669954 -0.1006786
0.04768057 -0.16476236 -0.14508884 0.13302283 0.04835897 0.12056514 0.10194599 0.37876716
0.15513247 -0.14032458 0.11643511 -0.14475623 0.09477487 -0.12520221 0.50146466 -0.022472743
0.7331306 -0.06404145 -0.08258264 0.14538266 0.12826979 -0.034871466 0.09483992 -0.14225242
-0.12339342 -0.06689516 0.06991943 -0.10785413 -0.0375216 -0.019700216 -0.060639728 -0.16865778
0.085569665 -0.05985009 0.1897381 -0.17003441 -0.032600757 0.13962159 0.12447853 -0.17631617
0.028792853 -0.051480483 -0.0874549 0.18158022 -0.16165851 -0.069468856 -0.3184306 0.21893959
-0.39638817 0.22597757 0.15463096 0.11159786 -0.0060474514 0.15446286 -0.053170614 0.03481931
0.032151096 -0.026771292 -0.1228235 0.25706854 -0.0024750708 -0.06194841 0.008973792 0.27904063
0.023087269 0.022650007 0.016811032 -0.08267371 -0.094372906 -0.022020465 0.13837002 -0.13283998
0.06668403 0.07700872 0.0952475 0.10987856 0.017519483 -0.04549111 -0.24466757 -0.0938661
-0.11765557 0.011966883 -0.21863593 -0.061368812 0.11672899 -0.070206255 0.08341463 0.072173156
0.16952813 -0.14921917 0.1244439 0.16858017 0.0780903 0.05427133 -0.0129031455 0.09458629
-0.027455626 0.1230226 0.21770243 0.0647361 -0.14267983 -0.005275598 0.1339265 -0.35692093
0.14116654 0.017140666 -0.0030307497 -0.092898674 0.097027496 0.061161622 -0.3870442 0.17101026
-0.5195185 -0.1440894 0.13499169 0.030792186 -0.052865334 0.12377814 0.11910756 0.19565423
-0.030872304 -0.088108055 -0.13492134 0.19822387 -0.01628188 -0.025800295 0.05014248 0.09192728
-0.029736627 0.073082834 0.049832806 -0.30946732 -0.08703703 -0.15502018 -0.020360414 -0.08330261
-0.042128842 0.056866143 0.025510328 0.16382994 0.05155881 0.033505216 -0.3432052 0.009259374
-0.47334436 0.13700321 -0.042204335 -0.105826594 0.07909027 0.030335167 0.065689504 0.10682376
0.24717559 -0.18712817 0.06433333 -0.19983247 0.0780745 0.07359506 0.05953666 -0.14266632
0.06646505 0.06996623 0.18513969 -0.1776401 -0.070377335 0.07539799 0.1166848 -0.20209451
-0.0714972 0.1315006 0.041173484 0.06915468 -0.114743374 0.08235933 -0.4722062 0.08020566
-0.4092383 0.089058146 0.11872927 -0.0052257148 -0.08570923 -0.10125345 -0.1442616 0.1424795
-0.2734925 -0.055594683 0.00448016 0.11294004 -0.08769438 -0.20709877 -0.028055144 0.078854606
0.013296616 0.13309386 0.033336103 -0.017101072 0.04179083 0.09811838 0.09340821 -0.14269409
0.037477676 -0.080043286 -0.102610216 -0.11949447 0.09079465 0.09480978 -0.15869308 0.08928581
-0.24264342 -0.10724232 -0.06593326 -0.027330605 -0.12724648 -0.08489966 0.039538573 0.1254158
0.123068646 -0.13894014 0.14010926 0.12465079 -0.09536689 -0.1666837 0.10559682 0.0390471
00000000: 11e9 96bc 7359 39bd 5bcb bbbc 9cdf e43d
00000010: fb80 0cbc 3126 da3d 3bc9 71bd 6fcd 1d3e
00000020: 75a1 293e 0288 143e c08b 4d3c 5291 463d
00000030: 2301 a23d b239 abbc 28e7 4f3e 0d52 b9bc
00000040: 9b70 9e3d 0808 e5bc 2030 3c3d 3237 953e
00000050: 2187 0dbd e80d 573e 9ad4 db3d 2551 03be
00000060: 6c15 d43d f12e 8a3e 3466 f13d 9849 09be
00000070: 2015 0a3e 5fd0 043e 1faf 8ebd 9530 cebd
00000080: b44c 433d 77b7 28be 2b92 14be 2337 083e
00000090: 0e14 463d dbea f63d 0fc9 d03d c5ed c13e
000000a0: 0cdb 1e3e 3fb1 0fbe 8875 ee3d fa3a 14be
000000b0: 5419 c23d 0235 00be fd5f 003f c218 b8bc
000000c0: 72ae 3b3f 2a28 83bd 1621 a9bd 31df 143e
000000d0: 2859 033e 62d5 0ebd 6f3b c23d 9eaa 11be
000000e0: b0b5 fcbd 5400 89bd eb31 8f3d a0e2 dcbd
000000f0: 40b0 19bd 5962 a1bc 5d61 78bd a0b4 2cbe
00000100: 263f af3d 5e25 75bd b44a 423e 801d 2ebe
00000110: 5f88 05bd f6f8 0e3e 99ee fe3d 3a8c 34be
00000120: fdde eb3c 33dd 52bd 8e1b b3bd 2af0 393e
00000130: cf89 25be b045 8ebd 5609 a3be b331 603e
00000140: 64f3 cabe aa66 673e 9457 1e3e 6b8d e43d
00000150: b329 c6bb 832b 1e3e 6ec9 59bd b19e 0e3d
00000160: deb0 033d 784f dbbc e38a fbbd 7d9e 833e
00000170: cc34 22bb 9ebd 7dbd d006 133c 6ade 8e3e
00000180: 8321 bd3c 828c b93c 4ab7 893c d650 a9bd
00000190: 9546 c1bd 4364 b4bc dfb0 0d3e 3407 08be
000001a0: a391 883d bfb6 9d3d 1f11 c33d 0308 e13d
000001b0: 0585 8f3c e354 3abd 238a 7abe df3c c0bd
000001c0: 67f5 f0bd bf10 443c 19e2 5fbe dd5d 7bbd
000001d0: 9c0f ef3d 4cc8 8fbd 4ad5 aa3d 85cf 933d
000001e0: c898 2d3e e9cc 18be 72dc fe3d 48a0 2c3e
000001f0: cfed 9f3d 9d4b 5e3d b767 53bc 75b6 c13d
00000200: 9fea e0bc 46f3 fb3d 63ed 5e3e 5c94 843d
00000210: a91a 12be ecde acbb 0724 093e 57be b6be
00000220: f68d 103e 956a 8c3c 8b9f 46bb a941 bebd
00000230: 5ab6 c63d 9c84 7a3d a82a c6be 501d 2f3e
00000240: 2aff 04bf 2c8c 13be 433b 0a3e e53f fc3c
00000250: 5289 58bd 657f fd3d aaee f33d 9559 483e
00000260: eae7 fcbc ff71 b4bd d228 0abe 33fb 4a3e
00000270: 9461 85bc 245b d3bc 3362 4d3d 5f44 bc3d
00000280: 3a9a f3bc 74ac 953d 7c1d 4c3d 8072 9ebe
00000290: 7840 b2bd 9cbd 1ebe e2ca a6bc 8f9a aabd
000002a0: 4b8f 2cbd 79ec 683d 09fb d03c 09c3 273e
000002b0: 552f 533d c43c 093d 98b8 afbe a1b4 173c
000002c0: 315a f2be 924a 0c3e 74de 2cbd 9dbb d8bd
000002d0: 14fa a13d 7581 f83c 3888 863d 6ac6 da3d
000002e0: 991b 7d3e 879e 3fbe 31c1 833d e2a0 4cbe
000002f0: 86e5 9f3d 02b9 963d b6dc 733d 1f17 12be
00000300: d41e 883d 744a 8f3d 4295 3d3e 49e7 35be
00000310: fe21 90bd 436a 9a3d 71f8 ee3d ddf1 4ebe
00000320: 206d 92bd 18a8 063e 87a5 283d f8a0 8d3d
00000330: 93fe eabd 02ac a83d 03c5 f1be dd42 a43d
00000340: af87 d1be 1e64 b63d 5528 f33d 793c abbb
00000350: 5288 afbd f85d cfbd 50b9 13be 25e6 113e
00000360: 3507 8cbe 40b7 63bd 4ece 923b 1c4d e73d
00000370: 1c99 b3bd b311 54be e7d3 e5bc 867e a13d
00000380: 0dda 593c c249 083e 708b 083d 8c17 8cbc
00000390: dd2c 2b3d 4af2 c83d ce4c bf3d 661e 12be
000003a0: 3182 193d bced a3bd 4e25 d2bd 84b9 f4bd
000003b0: 8cf2 b93d a12b c23d 7080 22be 7bdb b63d
000003c0: 8477 78be dda1 dbbd 0408 87bd 6fe4 dfbc
000003d0: e74c 02be dfdf adbd 33f3 213d 006d 003e
000003e0: 6a0b fc3d 5346 0ebe cd78 0f3e ea48 ff3d
000003f0: b74f c3bd 22af 2abe 2543 d83d daef 1f3d

linear3.bias f4 [10]
-0.86564124 -0.0063135712 0.23984873 0.44766983 0.4092637 0.33614546 0.99689925 0.5918387
-1.2816855 -0.36475953
00000000: aa9a 5dbf 13e2 cebb e89a 753e fb34 e53e
00000010: 038b d13e 421b ac3e ca34 7f3f be82 173f
00000020: 450e a4bf c3c1 babe
