fashion-mnist-feedforward.pth (torch, 57005 bytes, 6 tensors)

linear1.weight f4 [16, 784]
000000 ec c6 e8 bc 4e 5f d5 3c 7e f6 c6 3c 17 74 89 bc
       -0.028415166 0.026046421 0.024287459 -0.016778989
000010 a9 fc 1a 3c 8d 9c e6 3c 00 c3 02 3d ee f7 a6 bc
       0.009459653 0.028150821 0.031924248 -0.020381894
000020 7f 7c 09 3d 78 7d cf bc b1 27 af bc 54 9a 02 bd
       0.033565994 -0.025328383 -0.021381231 -0.03188546
000030 04 92 fd bc 0c 34 0d bd 66 30 b9 3c 67 41 0d bb
       -0.030953415 -0.034473464 0.022606086 -0.0021553875
000040 37 64 b0 bc f1 82 4d 3c ae 84 ba 3c c3 38 8e bc
       -0.021532161 0.012543426 0.022768345 -0.01736105
000050 3d 10 a8 bc 18 30 b4 bb 5e 32 8c 3b 00 a8 a8 3b
       -0.020515556 -0.0054988973 0.004278465 0.0051469803
000060 06 47 0b bd 2e fa 9f 3c 92 08 4f bc f0 50 20 3c
       -0.03400328 0.019528475 -0.012636321 0.009784922
000070 0e 15 9d 3c fc e3 94 bc b8 e6 bb bc a0 d4 d9 3c
       0.019175079 -0.018175118 -0.022937164 0.026590645
000080 43 94 0c bd 55 38 f6 bb c9 68 bf 3b e0 00 90 bb
       -0.03432108 -0.0075140395 0.005841349 -0.0043946356
000090 be 61 1a bb 06 9f 3e 3a 68 54 99 bb 89 41 ee 3b
       -0.0023556794 0.0007271621 -0.0046792515 0.007270996
0000a0 c8 19 bf 3c 1e c4 86 3c 23 80 b7 3b d9 eb ef bc
       0.023327723 0.016450938 0.005599992 -0.029287266
0000b0 e9 ed 34 bc 54 07 7d bb aa 69 21 3c 65 b9 13 bc
       -0.01104305 -0.0038609104 0.009851852 -0.0090163695
0000c0 5e de a7 bb 9d aa 59 bc 11 3b 9c 3c 3e ec b8 bc
       -0.005122944 -0.013285306 0.019071134 -0.022573587
0000d0 00 ac f3 3a 54 ca 3f 3c 15 bf bc bc 1c 7e 5d bc
       0.0018590689 0.011705954 -0.023040334 -0.013518836
0000e0 46 0a d9 3c 46 f2 7a bc dc 56 c9 bb 0b cb ee ba
       0.026494157 -0.015316552 -0.0061443876 -0.001821847
0000f0 ce 9c 10 bc b3 f2 a2 ba 5c 98 ac 3c 84 df dc bc
       -0.008826448 -0.0012431949 0.021068744 -0.02696205
000100 fb 3c 73 3a cb c6 d8 3a f6 cc 63 bb fa d7 f0 3c
       0.0009278801 0.0016538737 -0.0034759617 0.02939986
000110 c7 33 aa 3b b8 03 ff 3a 77 9a da bc 49 8a 20 ba
       0.0051941606 0.0019456064 -0.026684983 -0.0006124122
000120 b1 fc c3 bb 4a fa df 3c 5b 15 81 3b 8c 5d 92 bc
       -0.005981051 0.027341027 0.0039393133 -0.017866872
000130 10 b6 df 3c dc b7 11 3d da 4c ca bc 6c ef eb 3c
       0.027308494 0.035575733 -0.024694849 0.028800689
000140 ef cd 04 3d 98 6a bd bc f8 d4 f5 bb 7e 51 83 bc
       0.032422956 -0.023122117 -0.0075021945 -0.01603007
000150 ce aa 1c bc 8d 68 0c bd a4 2b 9e bc 6a 69 0c 3d
       -0.009562207 -0.034279395 -0.019307919 0.03428022
000160 7f c6 ad 3b c1 d3 45 3b b7 ae 04 bd 92 75 34 bc
       0.0053032036 0.003018603 -0.032393184 -0.011014359
000170 a5 b8 0f bd d9 03 06 bd eb ae f6 bc 64 40 ea 3c
       -0.0350882 -0.032718513 -0.030112704 0.028595157
000180 68 66 af bb 88 41 f4 3b 8b 18 0c bd af 30 38 bc
       -0.005352784 0.007454101 -0.034203093 -0.011242076
000190 4a 6a eb bb 93 5f ff bc 64 74 02 bc 13 67 8f 3b
       -0.0071843015 -0.031173503 -0.00796232 0.004376301
0001a0 60 62 6c bc 4d 96 9f 3a 49 10 f9 bb 61 bb 6e 3c
       -0.014427751 0.001217553 -0.0076008183 0.014571042
0001b0 f2 d3 4f 3c f3 28 7d 3c e4 46 a4 3c e3 46 a7 bc
       0.012684809 0.015451658 0.020053335 -0.020419544
0001c0 e0 61 9c 3c 27 7f 84 3c ce 9e 93 3c 0c ee f7 3c
       0.01908964 0.016173912 0.01802006 0.030264877
0001d0 3c a8 8c 3c 7d 49 4b bc 3f ad da bc 65 1c d5 bc
       0.017170064 -0.012407658 -0.026693938 -0.026014516
0001e0 39 0d f4 3c a8 2e 03 bd b0 61 a8 ba 28 f3 e3 3c
       0.029791461 -0.032026917 -0.0012846496 0.027825907
0001f0 5d c4 02 bd 9b c8 0d bd e1 a8 d4 bb 2f d4 d3 3b
       -0.031925548 -0.03461514 -0.0064898585 0.0064645032
000200 d5 dc 93 bc 13 6b 39 3b e1 35 4a bb dc 81 60 3c
       -0.018049637 0.002829258 -0.0030854868 0.013702836
000210 b9 07 73 3b 89 6d 09 3d 06 57 3b bc 01 9d c5 3c
       0.003708346 0.033551726 -0.011434322 0.024122717
000220 2c a0 09 bc b2 d2 3a bc ab 5b 1c 3c 80 73 83 bc
       -0.008400004 -0.011402773 0.00954334 -0.016046286
000230 46 dc 11 3c ca b6 b8 bc 09 79 a1 3c 3c fe d6 bc
       0.008902615 -0.022548098 0.019711034 -0.026244275
000240 58 37 df bc 3d 8f b0 bc b9 ce c6 bc be 5d fa bb
       -0.02724807 -0.021552676 -0.024268495 -0.0076405695
000250 83 47 4b bc 30 22 60 bc e9 24 0f bd 80 48 f5 3b
       -0.012407186 -0.013680026 -0.03494731 0.0074854493
000260 ef 14 0b bc 30 b1 b3 3c f4 9a e1 3c d4 b5 b0 3c
       -0.008488878 0.021935076 0.027539708 0.021571077
000270 41 fa d1 bc af 73 1b 3c fa 64 d1 3b 9b a3 c3 bc
       -0.025632026 0.00948803 0.006390211 -0.023881724
000280 7c 03 8a bc 59 26 08 3d be d4 9f bc 3d ba db bc
       -0.016847365 0.033239696 -0.019510623 -0.026822204
000290 46 86 e3 bc 39 66 0b 3d f3 26 95 bc c6 dc d2 3b
       -0.027773988 0.034033034 -0.018207049 0.0064350097
0002a0 dc 6b 0f 3c d1 db 4b bc 12 ef 03 3c da 45 26 bc
       0.008753743 -0.012442545 0.008052604 -0.01014849
0002b0 39 f0 aa 3c e5 4e 85 3b 51 10 01 3d aa 66 9c bc
       0.0208665 0.004068243 0.0315097 -0.019091923
0002c0 93 aa 39 bc 97 b4 8d 3c a3 d3 84 3c 92 5b 09 3d
       -0.011332172 0.017298026 0.016214198 0.033534594
0002d0 cc 44 a1 bc 82 c0 28 3c 1d a9 fb 3c e6 f0 a3 3b
       -0.019686125 0.010299804 0.030720288 0.0050030826
0002e0 70 d7 06 bd 0a 1b 05 3d 48 f0 01 bd 32 06 59 bb
       -0.0329203 0.03249649 -0.03172329 -0.0033115265
0002f0 38 af c7 3c 00 76 9d bb 38 40 11 bb 39 96 9b bc
       0.024375543 -0.0048053265 -0.0022163521 -0.01899253
000300 66 61 4b 39 5d ae 46 ba eb 65 83 3c 50 c1 af 3c
       0.00019395872 -0.0007579083 0.01603981 0.021454483
000310 25 27 06 bd f6 41 c1 3c 20 94 e0 bc 78 e9 d0 3c
       -0.032752175 0.023591023 -0.027414382 0.025501952
000320 ce 9b 18 bc 70 ae d7 3c fb ad ea ba 7f 34 03 3d
       -0.0093144905 0.026328295 -0.0017904633 0.032032486
000330 47 7d d6 bc d3 43 95 bc ce b4 6d bc 17 59 b6 bc
       -0.026182784 -0.018220818 -0.014508439 -0.022259278
000340 74 2e 01 3d 8a 1d 8c 3b d6 af 0b 3d 46 1d 47 3c
       0.03153844 0.0042759823 0.034103237 0.012152975
000350 04 4d 93 bc e2 84 0a bd 08 45 db 3c 2b 6b 60 3a
       -0.01798106 -0.033818133 0.026766315 0.0008560891
000360 c2 7e ab 3c 20 60 f6 ba cc c8 dd bc f6 89 9d 3c
       0.020934466 -0.0018796958 -0.027073286 0.019230824
000370 e6 3d 48 3c 29 9c 11 3b ff dc ec bc ac 37 9d 3c
       0.012221789 0.0022218323 -0.028913973 0.019191585
000380 44 83 bf 3c 1b 91 82 3c f2 66 2e 3c 16 99 39 bb
       0.023378022 0.015938332 0.010644661 -0.0028320006
000390 21 79 83 3c 31 9c bf 3c 6e 4a b1 3c 4e 98 f4 3c
       0.01604897 0.023389908 0.021641936 0.02985778
0003a0 98 be 19 bc 6e 44 92 b9 53 1f 72 bb 5d 1f 36 3c
       -0.00938382 -0.00027898274 -0.003694494 0.011115876
0003b0 5a 6c 3c bc 7f 3b 5e ba 02 6a cd bc a3 c3 b6 bb
       -0.011500442 -0.00084774935 -0.025074963 -0.005577521
0003c0 1e a1 05 bd 79 e9 9c bc db b7 41 bc 8c df 50 39
       -0.032624356 -0.019154297 -0.01182362 0.00019919703
0003d0 4b cb 91 bc 93 f8 d1 bc 2f 1c 10 bc c1 86 eb 3c
       -0.017797133 -0.025631225 -0.008795782 0.02875078
0003e0 05 5a 0a bd 98 53 40 3c 44 0a f0 bc 73 f8 d1 3c
       -0.033777256 0.01173868 -0.02930177 0.025631165
0003f0 87 46 ec bc 11 1d 81 3c fa 3f f9 bb 43 3e c2 3c
       -0.028842224 0.01576093 -0.0076065036 0.02371133

linear1.bias f4 [16]
000000 7a e7 eb bc 2f 63 4a be 7c c7 b2 3e 24 6e 11 3c
       -0.0287969 -0.19764398 0.3491782 0.008876357
000010 3c 97 d6 bc ef 1e 9a bd 0a ab 7f 3f e5 9d 9d 3f
       -0.026195161 -0.07525431 0.9987036 1.231381
000020 6d 0e 30 3f 43 91 fc 3e d8 1c a3 3c 67 70 75 3e
       0.6877201 0.49329576 0.019911215 0.2396866
000030 a8 9b f7 3c 3b fa d1 3f 3f 9a 85 3f cb 20 20 3e
       0.03022559 1.6404489 1.0437697 0.1563751

linear2.weight f4 [32, 16]
000000 00 e7 70 bd cd 56 93 be d4 a1 04 be d3 96 82 bc
       -0.05881405 -0.2877716 -0.12952358 -0.01594106
000010 10 af f2 bc bc 8a bd 3d 5c fe 44 bd c3 44 89 be
       -0.029624492 0.09254977 -0.04809414 -0.26810274
000020 80 76 9c bd 50 f5 35 bd 68 64 62 3e ea 4c 07 3f
       -0.076397896 -0.0444234 0.22108614 0.52851737
000030 e1 f9 03 be f4 76 8a be 28 0e 82 bd 80 db 13 bd
       -0.1288829 -0.2704388 -0.06350356 -0.036098003
000040 f3 9b 2b be 6e 40 1c bf 10 03 39 be 84 4d dc 3c
       -0.16758709 -0.6103581 -0.18067575 0.026892431
000050 63 2e 7c bd da 49 36 be 4c ed c2 3d b4 99 1e bd
       -0.061567675 -0.1780161 0.09517917 -0.0387208
000060 16 19 17 bf a1 c5 36 bc cf 6c 57 be b0 95 54 be
       -0.59022653 -0.011155517 -0.21037601 -0.20760226
000070 2b ce 05 be 89 ef 3b 3f 4b 1d 5f 3d e9 57 e4 3e
       -0.13066928 0.73412377 0.054471295 0.4459832
000080 b3 73 3a 3e 63 7a a9 be a9 a9 fc be 88 d4 8b 3e
       0.18208198 -0.33101186 -0.4934819 0.27310586
000090 02 b5 ab 3d 00 24 80 b9 ca 86 bd be ec 7b a5 be
       0.08384134 -0.00024440885 -0.37016898 -0.32321107
0000a0 38 2d 82 bd 6a 06 ac 3d 26 e8 02 be b1 eb 85 3e
       -0.06356281 0.08399661 -0.1278387 0.2615638
0000b0 a2 56 79 3d a7 9b b1 3e b3 b6 8c be 82 88 4b be
       0.060873635 0.34689066 -0.27483138 -0.19876292
0000c0 18 b2 c1 3d f7 95 b2 be a0 32 9d be 46 d6 b5 3e
       0.09457797 -0.3488004 -0.30702686 0.3551504
0000d0 1f d0 7a bd 88 d6 98 3c d6 e1 6c be 54 1d a1 be
       -0.061233636 0.018656984 -0.23133025 -0.31467688
0000e0 2f a7 88 bd 5c 03 a6 be 7d db b9 be 20 1b 16 be
       -0.06672513 -0.32424438 -0.3630027 -0.14658785
0000f0 1b 94 36 3d bd ad 4e 3f 21 58 e2 be ce ad 92 be
       0.044574838 0.80733854 -0.44207862 -0.28648227
000100 a4 20 df 3d 8f a2 cc be 6e 9c 0f 3f 5a c2 d5 bd
       0.108948976 -0.39967772 0.5609807 -0.1043746
000110 ae 7e 1b 3e 09 e0 0b be 8f 75 5e 3f af 66 85 3e
       0.15185043 -0.13659681 0.8689813 0.26054904
000120 e4 1b 6b be e4 2c 86 3c 30 66 f3 3d 1d ae 8b 3e
       -0.22959858 0.016378827 0.11884725 0.27281275
000130 ee b2 cc 3d 38 80 6a bb 35 b5 ff bc 95 af 87 be
       0.09995066 -0.003578199 -0.031214336 -0.26501146
000140 19 72 25 3a fa 2c 11 be 6f 3f af bc 23 a1 b4 be
       0.00063112524 -0.14177313 -0.021392552 -0.35279188
000150 1f 65 ae 3d f8 b0 60 38 9c 14 3e 3f 75 07 4f 3e
       0.08515381 5.3570577e-05 0.742502 0.20217688
000160 fc f3 ab 3d 93 9e e4 be e0 7d cd 3e f0 3f 7e be
       0.08396146 -0.44652233 0.40135098 -0.24829078
000170 d0 03 de 3d 33 45 33 be de fa 19 bf 94 17 56 be
       0.10840571 -0.17506866 -0.6014842 -0.20907432
000180 3a 7d 2e be 95 88 86 be 09 14 80 bd 6b b0 d1 3d
       -0.17039958 -0.2627608 -0.062538214 0.10238727
000190 7f 18 c1 3d 40 d4 88 bc 19 2e 70 be 53 9d e3 3d
       0.094285004 -0.016702771 -0.23455085 0.111139916
0001a0 7e 24 8f bd 34 f5 35 be c0 71 9f bb fc ca ff bd
       -0.06989382 -0.17769319 -0.004865855 -0.12489888
0001b0 b8 85 1e 3e 08 19 ab 3d 12 5a 8c be ec db 37 be
       0.15480697 0.08354384 -0.27412468 -0.17954987
0001c0 3d d3 0a 3e 62 f9 db 3e 10 ba 56 be 2c 39 04 3e
       0.13557144 0.429637 -0.20969415 0.12912434
0001d0 6a 58 4b 3e 49 0c d2 3d 0e e8 27 3e 5e 20 73 3d
       0.19857946 0.102562495 0.16397116 0.05935704
0001e0 a2 ab 8e 3d 76 68 cc bd e1 e2 77 be 25 ca 88 be
       0.0696633 -0.09980862 -0.24207641 -0.26716724
0001f0 a0 f0 0e be 86 0d 06 3e 86 a2 a2 3e 64 32 81 be
       -0.13958979 0.13091096 0.3176462 -0.25233757
000200 2b 57 2d 3e 73 3e 9b be 68 a4 ae 3e 43 1e 3f be
       0.16927783 -0.30321082 0.34109807 -0.18663888
000210 f0 00 4f 3e ba 09 d9 3d 30 65 42 3e c0 58 95 3e
       0.20215201 0.10597558 0.18983912 0.29169273
000220 3f aa bd 3e f9 53 5b 3e ef 8c 34 3e fd 11 62 3c
       0.3704395 0.21418752 0.17631887 0.013798234
000230 cd 3f 54 be 74 6c ff 3b 4f b3 33 3f 25 37 25 bf
       -0.20727463 0.007794911 0.7019548 -0.6453727
000240 98 6a 5b 3e b1 f8 e8 be 8e ce 16 be f5 d8 df 3d
       0.21427381 -0.45502236 -0.14727232 0.10930053
000250 75 90 60 be 40 fe fb bd 3d 41 85 bd e8 e0 d9 bb
       -0.21930106 -0.12304354 -0.06506584 -0.0066491254
000260 7c d6 07 3f 44 f9 fe 3d c5 d8 4a be 53 7e d9 be
       0.5306165 0.124498874 -0.19809254 -0.4247919
000270 4c d1 1a 3e 3d 90 83 be 2a f0 12 be 92 39 6e bd
       0.15118903 -0.25695983 -0.14349428 -0.058160372
000280 ee e5 7c 3e bb d1 04 3d b7 2c 9c 3e 2c f4 87 bd
       0.24697086 0.032426577 0.30502865 -0.06638369
000290 1c 46 77 3d 54 ea 6b bd 2a 18 d4 3e 18 c1 b3 be
       0.060369596 -0.05759652 0.41424686 -0.35108256
0002a0 f7 cc a2 be 93 a1 01 3f dc 6f 20 be 7c 96 04 3e
       -0.31797 0.5063717 -0.15667671 0.1294803
0002b0 14 6a 1d be 87 1b 63 3d 08 0b 39 3d 78 7b c9 bd
       -0.15372497 0.055446174 0.045176536 -0.09838003
0002c0 8d 56 3a bd 3c d7 3d be 36 07 00 bd 68 c7 f3 3d
       -0.045492698 -0.18539137 -0.031256877 0.11903268
0002d0 78 22 2a 3d e4 5a c6 bd 22 61 cf 3e 24 3b 4a bd
       0.04153678 -0.09685305 0.40503794 -0.049372807
0002e0 46 be 49 be 20 f9 c2 be 2a 51 fa 3d a7 89 2c be
       -0.1970149 -0.38080692 0.12222512 -0.16849385
0002f0 78 ae 6a bd 8d 02 5e 3e 24 b9 b9 3c 42 2d f5 bd
       -0.057295293 0.2168066 0.02267129 -0.11971523
000300 f7 20 46 3b 32 12 33 3e 93 4c 9e be e5 98 63 be
       0.003023205 0.1748741 -0.30917796 -0.22226293
000310 97 03 0d be ff ce a4 3e 64 84 6d be b0 9b ff be
       -0.137709 0.32189175 -0.23195034 -0.49923468
000320 59 07 bf bd cc e1 a2 3e 1d 62 92 be 90 f2 68 bf
       -0.09327573 0.31812894 -0.2859048 -0.9099512
000330 ae 66 a9 bc 2e af d9 3d bf 2c 20 3e e1 68 10 3f
       -0.020678844 0.10629116 0.1564207 0.5641003
000340 d5 d4 be 3c 0f 9e cf be f5 29 88 be 7a c4 5b be
       0.023294846 -0.40550277 -0.2659451 -0.21461669
000350 17 fe 57 3e 51 b3 0d 3e a6 11 62 be 94 fd 19 be
       0.21093021 0.13837935 -0.22077045 -0.15038139
000360 75 15 ed 3e 04 85 70 3e dc 60 93 bc 68 81 64 bf
       0.46305433 0.23488241 -0.017990522 -0.8925996
000370 84 24 60 be a6 27 fa be ab 4e 29 bd ef b5 8a be
       -0.2188893 -0.48858374 -0.04133479 -0.2709193
000380 02 74 02 bd d8 1f 24 be fa 9b f2 bd 61 b3 3a 3d
       -0.031848915 -0.16027772 -0.118461564 0.045581225
000390 ed e5 17 3d 6d 25 84 be e9 90 17 3c 88 a1 81 bd
       0.03708451 -0.25809804 0.009250858 -0.06329638
0003a0 6f 3d a3 be aa 3f a7 bc 23 87 a0 be 50 22 3d be
       -0.31882808 -0.0204161 -0.313531 -0.1847012
0003b0 94 65 d1 3c 56 53 fd 3e 73 96 11 be 1a ed 3d be
       0.025561132 0.49477643 -0.14217548 -0.18547478
0003c0 a1 2d 18 be 3a 38 9c be e0 86 87 bd d3 80 81 3e
       -0.14861156 -0.30511647 -0.06617522 0.25293598
0003d0 a1 18 5e 3d 9b 4c 6b be 02 0f 93 bd 8f 81 91 3c
       0.054222707 -0.22978441 -0.07180597 0.017761974
0003e0 5a 8c 30 3d dc 12 35 3f 8c 63 c1 3d 71 ab 14 bf
       0.0431026 0.707319 0.09442815 -0.580741
0003f0 cf 9d cd 3d f8 25 03 bf 41 2c 09 be 87 fb c2 3e
       0.10039865 -0.5122981 -0.13395788 0.38082525

linear2.bias f4 [32]
000000 7a cc 07 bf e7 79 9c 3e b6 a0 70 be 07 bb dd 3e
       -0.5304638 0.30561754 -0.23498806 0.43306753
000010 ef dc 93 3d 8f 69 92 3f 12 78 73 bd c8 6c 83 bf
       0.07219874 1.1438464 -0.05944068 -1.0267572
000020 30 75 2f bf 71 1b 0c 3f 1e 7c fc 3e 50 15 cd bd
       -0.6853819 0.5472937 0.49313444 -0.10013831
000030 f2 e2 9b 3e 12 41 b5 3f 7f ba 50 3e 18 9f ed 3e
       0.30446583 1.4160483 0.20383643 0.4641044
000040 45 eb ed 3e ac 98 0a 3f dc f7 c3 3e 0b 0e 13 3f
       0.4646856 0.5413921 0.3827504 0.574433
000050 86 e5 7f 3d 63 43 0b 40 a1 9d 98 bf bd 57 87 3e
       0.06247475 2.175988 -1.1923105 0.26434126
000060 a2 a2 84 be 0c 15 4a be 19 aa 55 be 7c 0a 01 be
       -0.2590533 -0.19734591 -0.20865668 -0.12601656
000070 4a 9d 89 be 33 13 9f be ec 35 3f 3f b4 5b 69 be
       -0.26877815 -0.31069335 0.74691653 -0.22788888

linear3.weight f4 [10, 32]
000000 c4 bc 22 be e9 3b f9 be 7f 19 95 bd 38 37 46 3e
       -0.15892321 -0.4867852 -0.072802536 0.19357002
000010 52 0a 19 be e5 d4 cb 3d 66 4a 92 3e a7 f6 b7 bd
       -0.14945343 0.09952716 0.28572387 -0.08982592
000020 8b 11 be 3e 26 6d 2f 3f f1 fe f9 bc fd dc 00 be
       0.3712276 0.6852592 -0.030517073 -0.125843
000030 c1 15 34 bd f9 46 4b 3f d3 00 ae bb e2 93 f6 3d
       -0.04396606 0.7940517 -0.005310157 0.12039925
000040 3a db f7 bb ca 99 b6 bd 28 bc 9c be c7 38 41 bd
       -0.0075639756 -0.08916052 -0.30612302 -0.047173288
000050 c2 b9 b1 3d 64 0c 5c 3f 67 90 8e 3e 54 e1 70 bd
       0.086780086 0.85956407 0.27844545 -0.05880864
000060 1c a8 02 bf f3 ba c0 be 85 2f 09 be 1b f9 80 be
       -0.51037765 -0.3764263 -0.13397034 -0.25190052
000070 1a f1 88 3e 01 8c d4 3d 4c 99 4b 3e 68 58 3a 3e
       0.26746446 0.10378266 0.19882697 0.18197787
000080 63 6b 05 3d 9c 67 3a be 3d 6d 24 3e 53 e4 5e 3e
       0.032573115 -0.18203586 0.16057296 0.21766786
000090 67 23 54 be c9 1e 76 3e d5 c0 c5 3d 2d 49 d0 3e
       -0.2071663 0.24035181 0.096559204 0.4068083
0000a0 d9 a9 3f 3f ea 33 b2 be ea 0b 16 be 22 66 c9 3c
       0.7486854 -0.34805232 -0.14652982 0.024584834
0000b0 65 0f c9 be bf d9 8b be 30 3c 92 be 32 88 87 3b
       -0.39269558 -0.27314565 -0.28561544 0.004136109
0000c0 5b 8e 96 bc d4 e1 4f 3e 39 b9 93 be 27 c8 90 be
       -0.018378427 0.2030099 -0.2885225 -0.28277704
0000d0 58 fd 77 3e be d1 47 3d e7 f4 38 3f fa d8 3d 3f
       0.24217737 0.04878401 0.7224869 0.74159205
0000e0 7c da 10 be a6 66 24 bd 1c a9 0e be 11 30 42 bd
       -0.14145845 -0.040136956 -0.13931698 -0.04740912
0000f0 04 25 8f be 37 97 0a 3d 81 4d 05 3f 6f 1a 2b bd
       -0.27957928 0.033835616 0.52071387 -0.041773256
000100 13 04 35 3d 84 08 82 be 58 07 c0 3d 31 b0 9f be
       0.04419334 -0.25397122 0.09376401 -0.3118911
000110 06 c4 1b bf 2d 51 2c 3f 64 9a 5f 3b a7 4f ea 3e
       -0.60845983 0.67311364 0.0034119124 0.45763895
000120 27 ac cc be 04 fe 20 be a3 5d b9 be e2 8c 66 3d
       -0.39975092 -0.157219 -0.36204252 0.0562867
000130 33 95 da 3e 06 1f 94 bc e9 56 1a 3e c5 a9 29 3d
       0.42691955 -0.0180812 0.15072216 0.04142167
000140 a8 26 90 be 2c c5 3a be ef 31 49 3f 80 44 10 be
       -0.28154492 -0.18239278 0.7859182 -0.1408863
000150 8d 14 ef 3d 8e 96 ae 3e 6c f0 f3 3c 4d c7 89 be
       0.116738416 0.3409924 0.029777728 -0.26909867
000160 9b 11 e4 be 11 6e 1c 3f a5 56 27 bd 87 79 91 3e
       -0.44544682 0.6110545 -0.040854115 0.2841303
000170 e7 9e 41 3e ff 14 bc 3e 89 c3 10 3f 98 26 63 bd
       0.18908273 0.3673477 0.5654836 -0.055456728
000180 c5 a9 9d bc 16 20 97 bc 63 0b 11 bd f1 4b fa be
       -0.019245991 -0.018447917 -0.03541125 -0.48886064
000190 02 02 b2 be 67 d3 b4 be d9 62 70 be 4b ca 37 3e
       -0.34767157 -0.35317537 -0.23475207 0.17948262
0001a0 08 fb b1 3e a1 de 26 3e 11 47 dc be 7c bf b0 3d
       0.34761834 0.16295864 -0.4302297 0.08630273
0001b0 4d 61 49 3e a7 da 8d 3e 9c d8 18 be 90 2b a2 be
       0.19666024 0.2770588 -0.1492638 -0.3167386
0001c0 70 55 bf be 71 3b e2 bd d4 d9 f7 3d 92 40 e5 3d
       -0.3736987 -0.11046494 0.12102094 0.111939564
0001d0 22 d3 44 3e 4b 4e 59 3f 5f d6 33 be ee 43 12 3f
       0.19221166 0.8488509 -0.17562245 0.571349
0001e0 d7 f6 ed be c9 36 1f be e5 64 13 be b5 06 4f bc
       -0.46477386 -0.15548243 -0.14393957 -0.012635876
0001f0 11 e4 8d bd 48 45 e0 bd 07 5f f4 be ec e1 6c 3d
       -0.06928266 -0.10950714 -0.4772875 0.057832643
000200 ba 85 af bd 88 0f 20 be d1 3e f8 bc 8e bf 22 be
       -0.08570428 -0.15630925 -0.03030339 -0.15893385
000210 aa 99 33 be 91 ac 0f 3e de 23 51 3e cd b8 08 3f
       -0.17539087 0.14030673 0.20423838 0.53406984
000220 16 7d d8 be 45 8b a4 bd 85 0c 54 bf 91 6f 33 bc
       -0.42282933 -0.08034376 -0.82831603 -0.0109518925
000230 ea e2 4b 3f a2 f8 02 bf d7 8d 28 be a5 a9 08 3e
       0.7964312 -0.51160634 -0.16460358 0.13345964
000240 a2 48 b9 be be 5d ad be 3f 2f 0e 3f 21 d1 93 be
       -0.36188227 -0.33860582 0.5554084 -0.2887049
000250 cc 41 90 be 17 43 d2 3e 48 c9 33 3e 13 f3 b7 3e
       -0.281752 0.4106681 0.17557251 0.35927638
000260 41 cf b4 be 2e 93 6d 3f 84 16 dd bd 3e 20 84 3e
       -0.35314372 0.92802703 -0.1079531 0.2580585
000270 9f a3 13 bd 0e bd c9 bc b7 a1 8d 3e a6 57 9a 3e
       -0.036044713 -0.024626281 0.2766244 0.30144995
000280 d0 b8 bb be 0f a9 dd 3e e2 23 ec be 0b 9e b3 bd
       -0.36664438 0.43293044 -0.46121126 -0.08770379
000290 25 15 7d 3f b6 72 4c 3e 64 43 8d be a8 cc 24 bf
       0.9886039 0.19965634 -0.27590477 -0.6437478
0002a0 84 8b 5b 3e 9b 75 e8 be 7d 9b 4b 3f 47 6f 9c 3e
       0.2143994 -0.45402226 0.7953413 0.30553648
0002b0 f7 65 8f bf 76 9e 7a bf b3 0d a6 3d e5 ff 8f bd
       -1.1202992 -0.9789804 0.08108082 -0.0703123
0002c0 ef 0b ef 3e 8f de 9c 3e 74 b2 68 bf b8 c9 63 3f
       0.46688792 0.3063855 -0.908973 0.88979673
0002d0 ea e1 24 be c1 65 a8 bf ed 07 c6 be 60 be 1e bf
       -0.16101804 -1.3156053 -0.38677922 -0.6200924
0002e0 f0 da ab 3d f5 92 fe be 19 65 1d be 43 23 0e be
       0.083913684 -0.49721494 -0.15370597 -0.13880639
0002f0 0c d4 ec 3c cb aa 0c bd af c6 85 bf 3d 1c 11 bf
       0.028909706 -0.03434257 -1.0451258 -0.56683713
000300 d0 a5 f5 bd 87 5c 41 bf da 62 46 3d 1e c9 41 be
       -0.11994517 -0.7553181 0.048434116 -0.18924376
000310 99 ae 3b be 20 50 af 3e e7 b9 06 3e 5e a1 1b 3e
       -0.18328322 0.34240818 0.13156854 0.15198275
000320 dd 66 52 3d a3 a4 1b 3f dd 94 12 bf 10 5b 1a bd
       0.05136763 0.6079809 -0.572584 -0.0376845
000330 e4 fb 13 3f 01 b3 67 3f 59 ff d6 bd 24 37 c1 3e
       0.5780623 0.90507513 -0.104979225 0.3773738
000340 34 7f fe 3e 5d 72 9f 3e e2 4f 82 3e 5d 1b b7 be
       0.49706423 0.3114194 0.2545157 -0.35763064
000350 28 1d 13 be b5 32 3d 3f ad ab 80 be e1 01 8d be
       -0.14366591 0.739055 -0.25130978 -0.27540496
000360 97 51 06 bf d9 14 95 3f aa 59 ed 3d 76 db 26 3e
       -0.52468246 1.1646987 0.11589368 0.16294655
000370 6b 90 b9 bd 15 45 8e 3e 6b cd a8 3e 25 12 1e be
       -0.09060749 0.2778708 0.3296922 -0.15436609
000380 33 cc 67 3d 14 4a 43 3f d5 a4 a6 3e f9 2f 6c 3f
       0.056591224 0.7628491 0.32547632 0.922607
000390 04 89 04 3f c0 c7 23 bf 53 5a 28 be bd 09 10 bf
       0.5177157 -0.6397667 -0.16440706 -0.5626486
0003a0 61 58 3e be 79 5a 64 be 65 4a 72 3f 0f af af be
       -0.18588401 -0.22300138 0.9464477 -0.34313247
0003b0 fd ee ab be 00 36 37 bf 25 ce fe 3e 37 91 9f be
       -0.3358077 -0.7156677 0.4976665 -0.31165478
0003c0 37 10 a6 be 61 4e 5a be 9e 16 e2 be f3 ff 96 3e
       -0.32434246 -0.21318962 -0.4415788 0.2949215
0003d0 50 d9 8d 3d bf 16 62 bf 74 69 2e bd a4 e1 0f bf
       0.06926215 -0.8831596 -0.042581037 -0.56203675
0003e0 e1 c6 62 3f 7d f1 36 bf 2f 2c 48 bb 5a 39 60 be
       0.88584715 -0.7146223 -0.0030543914 -0.21896878
0003f0 3b 43 8c be 9e 48 d2 bd 8d 8e 6c bc ac 19 12 3e
       -0.27395043 -0.10267757 -0.014438284 0.14267606

linear3.bias f4 [10]
000000 9e 2f d6 3d 7a 7e 96 bf a3 ec 2d 3f 3f 8c 89 3f
       0.10458301 -1.1757348 0.67939204 1.0745925
000010 61 e5 88 3e 8d 95 4a 3f 45 10 99 3e b9 44 1d bf
       0.26737502 0.79134446 0.29895225 -0.6143299
000020 f3 6d 29 be 92 91 ae bf
       -0.16545849 -1.3638175
