mnist-feedforward.pth (torch, 104385 bytes, 4 tensors)

linear1.weight f4 [32, 784]
0.020776276 0.011651069 -0.019619763 0.028193306 0.028066862 -0.0092668235 -0.0034877844 -0.0014462285
0.028075214 0.02856521 -0.020078685 0.004966505 -0.018258113 0.012641167 0.012527055 0.03414702
-0.010944651 0.0248781 0.02598885 0.026044846 0.033505257 -0.0056934915 -0.028094072 0.03569747
-0.0040610544 0.005104024 -0.020571774 -0.0005708523 0.010444853 -0.03357799 0.027076598 -0.0070540532
-0.0086806435 0.00850646 0.02796384 0.03071103 -0.013813247 0.00807246 -0.016539374 -0.017884836
-0.023917072 -0.0072852476 -0.008374008 0.029996892 -0.02418214 0.0234158 0.018318728 -0.023347601
-0.03647871 -0.035780694 -0.01389045 0.022729836 -0.027085468 -0.025338873 -0.0023642853 -0.025891121
0.034787517 0.029876377 -0.028301384 -0.017374821 -0.002491819 -0.034420326 0.024301626 -0.029854137
0.03698707 0.0021502657 -0.011839974 0.030757168 0.024986222 0.0007266496 -0.026276542 0.023620639
-0.015436373 -0.023903172 -0.008403738 -0.00028177648 -0.0360212 0.00425772 -0.028304812 -0.00045992108
0.0127568 -0.024204854 -0.027371326 -0.020014027 -0.01814305 -0.02803113 -0.010509619 -0.03293905
-0.011436279 -0.032712806 -0.03868367 -0.012966883 -0.0035833898 0.027810847 -0.00027705 -0.044635206
-0.0025982338 0.0037403388 -0.05678423 -0.012293086 0.009066317 0.0072215428 -0.023312718 -0.064116076
-0.03677713 0.008183398 -0.0060117855 0.0015807394 -0.0104753 0.001926087 -0.021810122 0.02089082
0.017148785 -0.00018381527 0.00071769586 -0.030486561 -0.03174294 -0.05357208 -0.033457972 -0.018316897
-0.06931817 -0.02874427 -0.018931644 0.02763435 0.09257108 0.11242134 0.07907486 0.06252765
0.060628433 0.050619617 -0.01781938 0.020722648 -0.0007433017 -0.0125186425 0.027782792 -0.014642422
0.042943582 0.043248314 -0.020433784 0.026862359 -0.034204416 0.0066263825 -0.031714108 0.007011016
-0.051128555 -0.058562707 -0.08651712 -0.080903955 -0.06994052 -0.010671689 0.0050292052 0.025196474
0.06663647 0.08719141 0.09485613 -0.08480611 -0.09213914 -0.08510165 0.013560486 0.021568254
0.09986337 0.07157087 0.035287905 0.016497156 -0.010427996 0.0073447023 0.01402849 0.003552887
-0.031552956 -0.0062178713 0.007855293 -0.032879453 -0.021494213 -0.061666783 -0.11701584 -0.056908082
-0.029444618 -0.03672427 -0.03733186 0.04049946 0.18455683 0.14450535 0.05151297 -0.13961956
-0.29233778 -0.26710117 -0.22550355 -0.020705028 -0.029958451 -0.016081437 0.03135682 0.06558107
0.016944898 0.03969374 0.0004368227 -0.0037037826 -0.002115257 -0.0002539179 0.023614107 0.008836481
-0.0634896 -0.042452987 -0.10610186 -0.050362326 -0.05945357 -0.008193846 0.13041636 0.13708058
0.06395166 0.10228596 -0.0021417378 -0.17132574 -0.28597394 -0.15052561 -0.05057675 -0.10001424
-0.082904294 0.0040731397 0.035992168 0.07791889 0.073559836 0.021451369 0.03238359 0.014271471
-0.030415015 0.013517296 -0.014124475 -0.049160015 -0.08802272 -0.106587484 -0.07651802 -0.04959314
-0.090359725 0.047302704 0.091446504 0.20259245 0.2975768 0.10246299 -0.06881485 -0.23101415
-0.24368896 -0.067794345 -0.04715706 -0.06272511 -0.022871213 -0.038009766 -0.020863578 0.13655011
0.11669447 0.06037893 0.0052845636 0.0020359627 0.020114554 0.018594962 0.027073674 -0.022874579
00000000: 0233 aa3c 20e4 3e3c a0b9 a0bc a6f5 e63c
00000010: 7aec e53c e0d3 17bc 5093 64bb 608f bdba
00000020: fefd e53c 9601 ea3c 0e7c a4bc 10be a23b
00000030: 0a92 95bc e61c 4f3c 473e 4d3c bfdd 0b3d
00000040: 3251 33bc 28cd cb3c 92e6 d43c 005c d53c
00000050: cf3c 093d 7890 babb 8a25 e6bc 8337 123d
00000060: 9812 85bb a83f a73b 2386 a8bc 40a5 15ba
00000070: e420 2b3c 1389 09bd becf dd3c b025 e7bb
00000080: 4239 0ebc ae5e 0b3c 6c14 e53c b395 fb3c
00000090: f550 62bc 5a42 043c 957d 87bc 3883 92bc
000000a0: bced c3bc 16b9 eebb 2333 09bc 0bbc f53c
000000b0: a019 c6bc 7ed2 bf3c 2811 963c 7843 bfbc
000000c0: b36a 15bd c78e 12bd c594 63bc ec33 ba3c
000000d0: 58e2 ddbc 7893 cfbc 20f2 1abb 9e19 d4bc
000000e0: 5b7d 0e3d 4ebf f43c 4ed8 e7bc a455 8ebc
000000f0: c94d 23bb 54fc 0cbd 3414 c73c aa90 f4bc
00000100: c17f 173d 79eb 0c3b 73fc 41bc 75f6 fb3c
00000110: e8af cc3c a17c 3e3a e741 d7bc 1280 c13c
00000120: d7e8 7cbc 96d0 c3bc d5af 09bc 66bb 93b9
00000130: f78a 13bd 5884 8b3b 7edf e7bc 9021 f1b9
00000140: e601 513c 4249 c6bc d539 e0bc 75f4 a3bc
00000150: bca0 94bc 8aa1 e5bc 8930 2cbc 19eb 06bd
00000160: 3b5f 3bbc ddfd 05bd c572 1ebd 0d73 54bc
00000170: 4ed7 6abb 93d3 e33c 0641 91b9 68d3 36bd
00000180: 2147 2abb 7920 753b 9596 68bd f168 49bc
00000190: e48a 143c b1a2 ec3b 50fa bebc 4a4f 83bd
000001a0: 9ea3 16bd a913 063c 83fe c4bb d030 cf3a
000001b0: 98a0 2bbc c174 fc3a 24ab b2bc 3a23 ab3c
000001c0: 9c7b 8c3c 89be 40b9 c123 3c3a f4be f9bc
000001d0: e304 02bd 666e 5bbd 3a0b 09bd 510d 96bc
000001e0: aff6 8dbd 1a79 ebbc 8916 9bbc 6f61 e23c
000001f0: e895 bd3d 293d e63d 00f2 a13d 7f0e 803d
00000200: 8555 783d 8456 4f3d f3f9 91bc 8bc2 a93c
00000210: 22da 42ba fe1a 4dbc bd98 e33c c5e6 6fbc
00000220: 9ce5 2f3d 2525 313d c064 a7bc 730e dc3c
00000230: ee19 0cbd 2022 d93b a7e6 01bd aabc e53b
00000240: 2d6c 51bd 73df 6fbd e32f b1bd f9b0 a5bd
00000250: fa3c 8fbd 4fd8 2ebc 08cc a43b d668 ce3c
00000260: b478 883d 6991 b23d ee43 c23d d3ae adbd
00000270: 72b3 bcbd c649 aebd cd2c 5e3c e8af b03c
00000280: 2b85 cc3d c093 923d 0d8a 103d 0b25 873c
00000290: 2fda 2abc d4ab f03b c0d7 653c 8dd7 683b
000002a0: ac3d 01bd 49bf cbbb 7db3 003c 9bac 06bd
000002b0: a214 b0bc 4f96 7cbd 00a6 efbd 7318 69bd
000002c0: d735 f1bc 306c 16bd 4be9 18bd c3e2 253d
000002d0: 77fc 3c3e 36f9 133e 44ff 523d 6ef8 0ebe
000002e0: 4cad 95be 7cc1 88be 67ea 66be 979d a9bc
000002f0: 6d6b f5bc 38bd 83bc 0270 003d 5e4f 863d
00000300: 07d0 8a3c e795 223d 5a05 e539 29bb 72bb
00000310: 20a0 0abb 4920 85b9 5f72 c13c e3c6 103c
00000320: d606 82bd 2fe3 2dbd ef4b d9bd ba48 4ebd
00000330: 9685 73bd 7b3f 06bc de8b 053e da5e 0c3e
00000340: 17f9 823d 4d7b d13d 665c 0cbb 0470 2fbe
00000350: 2d6b 92be 6323 1abe 9129 4fbd 44d4 ccbd
00000360: bac9 a9bd f977 853b 866c 133d f093 9f3d
00000370: 8aa6 963d c8ba af3c a8a4 043d e3d2 693c
00000380: e928 f9bc a677 5d3c 586a 67bc 035c 49bd
00000390: 4145 b4bd 8a4a dabd 7bb5 9cbd 2d22 4bbd
000003a0: 850e b9bd 7bc0 413d 4e48 bb3d 6574 4f3e
000003b0: fd5b 983e 1ed8 d13d cdee 8cbd f98e 6cbe
000003c0: 9989 79be c3d7 8abd c327 41bd 0676 80bd
000003d0: 695c bbbc 21b0 1bbd 18ea aabc cbd3 0b3e
000003e0: 83fd ee3d e64f 773d 222a ad3b c96d 053b
000003f0: 47c7 a43c 7654 983c 9cc9 dd3c 7863 bbbc

linear1.bias f4 [32]
0.11776062 -0.11118374 0.30028346 0.14980164 -0.22407088 -0.43994462 -0.028532581 -0.18777013
0.14085743 0.09975043 -0.013153854 0.010305842 0.40574354 -0.07345788 0.019681588 0.33080348
0.0047717933 0.39317977 0.1053448 0.34642643 0.33040914 0.041349288 -0.021424862 0.056019
0.43000534 0.17247923 0.19319353 0.052993085 -0.051594667 0.06636937 0.11175759 0.24694373
00000000: 7b2c f13d 4db4 e3bd c1be 993e 9a65 193e
00000010: d672 65be 6c40 e1be 29bd e9bc d046 40be
00000020: ee3c 103e f449 cc3d 4383 57bc d6d9 283c
00000030: 9ebd cf3e 1671 96bd 483b a13c 135f a93e
00000040: b45c 9c3b dc4e c93e 04bf d73d ce5e b13e
00000050: 632b a93e df5d 293d 3183 afbc 2e74 653d
00000060: a929 dc3e 659e 303e 86d4 453e 470f 593d
00000070: ee54 53bd aaec 873d 2ae1 e43d d1de 7c3e

linear2.weight f4 [10, 32]
0.17863062 0.6588768 -0.2908326 -0.83020276 -0.87217104 0.32193705 -0.31844383 -0.043282464
-0.85993147 -0.53686076 0.116890535 -0.41226342 -0.39948043 -0.46535873 -0.25856927 0.27997664
0.6232419 0.12145039 -0.030458894 -0.4406625 0.052771814 0.15603083 -0.9954453 0.31198877
-0.4666085 -0.3434891 0.5293279 -0.2969016 0.30130935 0.64237624 0.09282889 1.1652735
0.2160758 -0.93494856 0.41750947 0.6578747 0.49851286 -0.23502487 0.13120475 0.66076905
0.47850952 0.35216662 0.15302873 1.071939 -0.013325778 -0.46196225 -0.438263 -0.75125104
-0.8569112 0.18513407 -0.15674822 0.7434194 -0.25518483 -0.6603363 0.07448247 0.043271504
-0.30955684 1.0941297 -0.58251333 0.4163504 -0.98803616 0.24619018 0.23560478 -0.036354274
0.3034227 -1.1475607 -0.24235176 0.48106816 0.20236313 0.792337 0.62177515 0.22870669
0.3937889 0.13435163 -0.12556589 -0.2955026 0.14945047 -0.48142418 -0.70735073 1.185137
0.22097841 -1.3254777 0.9172762 0.6509408 0.15669529 0.49989894 0.7346491 0.4690844
-0.42809984 -0.4138275 -0.6190302 -0.610638 0.01646264 -0.66117215 0.18017995 0.4333389
-0.5674454 0.24943304 -0.47031313 -0.6831725 0.59264725 0.14608392 0.8930296 0.3192643
0.5363277 0.05331747 -0.095482126 0.26430702 0.42279398 0.29644254 0.5969672 -0.38045555
-0.23718557 -0.006046994 -0.30760127 -0.48056075 0.5575878 1.0355995 0.39624172 -0.3203915
0.13088442 -0.23447356 -0.8810889 0.74995756 0.9057283 0.11582997 -0.32635486 -0.27012128
0.5529992 0.21795441 0.9343072 -0.40552065 -0.006769815 -0.9742589 -0.8297309 0.94766873
-0.30816117 -0.44044605 0.09266763 1.012686 -0.15599447 0.78905153 -0.8554124 0.71875715
0.6334544 -0.38383204 -0.42226014 -0.6715244 -0.49852657 -0.22349297 -0.09433254 -1.077049
0.32462212 0.24565868 0.7778719 -0.7592261 -0.7662867 -0.91998833 -0.81556714 -0.305733
-0.15303132 0.7261584 -0.44818342 0.4808555 0.3537027 -1.098145 -0.43361855 -1.5217742
-0.40790686 0.3187001 0.029428417 -0.7803015 0.88514394 -0.10239026 1.15136 -0.07563622
-0.4550689 1.2469366 -1.1623181 -0.22256887 0.48730037 0.19857074 0.6305785 0.65935063
0.061550558 -0.7400287 0.13654052 1.3056788 0.25740993 -0.035517428 0.6945369 0.11298328
0.30639952 0.5921788 -0.627035 0.69315094 -1.0366691 -0.1567138 -0.72869575 -0.23418824
-0.34913084 0.81132895 0.1331395 -0.07826717 -0.9344647 0.0047699832 0.74968463 0.35400286
0.58456266 0.30937508 -0.44096503 0.81692606 -0.50946105 -0.55317664 -0.4573609 0.38535947
-1.0121844 -0.021044912 0.5342954 -0.0365803 -0.7882597 -0.27192417 0.26734805 0.18351725
-0.01709966 -0.82451224 0.6384323 -0.3863381 -0.7519094 -0.029606141 1.4744356 0.23248275
-0.3483988 0.34100834 0.16954657 -0.028192291 -0.62698495 -0.73333836 -0.07975497 0.2712042
-0.92482483 -0.21081859 0.5893095 0.25860405 0.8379468 0.36160517 1.0595242 -0.5712628
0.51713556 0.65183586 0.99810183 -0.41728136 0.17887752 0.008282586 -0.21078187 -0.32552505
00000000: f2ea 363e 26ac 283f 03e8 94be 2b88 54bf
00000010: 9a46 5fbf efd4 a43e 120b a3be f448 31bd
00000020: 7824 5cbf b56f 09bf 4e64 ef3d 3114 d3be
00000030: b388 ccbe 8043 eebe 3163 84be 1959 8f3e
00000040: c88c 1f3f fbba f83d ee84 f9bc 849e e1be
00000050: 4227 583d 8cc6 1f3e 81d5 7ebf febc 9f3e
00000060: 4fe7 eebe cedd afbe 0982 073f 7d03 98be
00000070: 3845 9a3e c572 243f 131d be3d af27 953f
00000080: f942 5d3e ca58 6fbf cdc3 d53e 7a6a 283f
00000090: 143d ff3e 5caa 70be 8a5a 063e 2928 293f
000000a0: 33ff f43e 2f4f b43e 90b3 1c3e 4c35 893f
000000b0: 5d54 5abc 5186 ecbe 0264 e0be fd51 40bf
000000c0: 885e 5bbf c993 3d3e 9b82 20be bc50 3e3f
000000d0: 96a7 82be cd0b 29bf 448a 983d 763d 313d
000000e0: 3c7e 9ebe 710c 8c3f 981f 15bf e12b d53e
000000f0: f0ef 7cbf 4719 7c3e 6142 713e 38e8 14bd
00000100: 385a 9b3e 45e3 92bf 0f2b 78be 914e f63e
00000110: 4838 4f3e 99d6 4a3f a82c 1f3f 1632 6a3e
00000120: b39e c93e 7993 093e 5894 00be 1e4c 97be
00000130: 8b09 193e 3b7d f6be f014 35bf 92b2 973f
00000140: 2a48 623e 41a9 a9bf 9dd2 6a3f 0ea4 263f
00000150: bb74 203e c1f2 ff3e f711 3c3f d52b f03e
00000160: e72f dbbe 33e1 d3be c378 1ebf c652 1cbf
00000170: a9dc 863c 9442 29bf 1881 383e 99de dd3e
00000180: 1a44 11bf 606b 7f3e e2cc f0be 65e4 2ebf
00000190: bbb7 173f 0697 153e 969d 643f 9c76 a33e
000001a0: c64c 093f 6b63 5a3d 228c c3bd 4053 873e
000001b0: 7478 d83e 51c7 973e d8d2 183f 12cb c2be
000001c0: c6e0 72be dd25 c6bb ea7d 9dbe 0f0c f6be
000001d0: 13be 0e3f 868e 843f 32e0 ca3e 5b0a a4be
000001e0: 9106 063e d619 70be 0b8f 61bf 38fd 3f3f
000001f0: cfdd 673f 4338 ed3d fc17 a7be 564d 8abe
00000200: 5b91 0d3f 712f 5f3e c22e 6f3f 67a0 cfbe
00000210: 53d5 ddbb 0869 79bf 3f69 54bf 6b9a 723f
00000220: 4dc7 9dbe 2582 e1be 87c8 bd3d b29f 813f
00000230: 04bd 1fbe 48ff 493f 4ffc 5abf 7800 383f
00000240: 112a 223f a285 c4be 7b32 d8be 06e9 2bbf
00000250: e03e ffbe 57db 64be 6b31 c1bd bedc 89bf
00000260: df34 a63e f38d 7b3e 9d22 473f a45c 42bf
00000270: 5d2b 44bf 5b84 6bbf 02c9 50bf 0989 9cbe
00000280: 3eb4 1cbe 84e5 393f 4c78 e5be b132 f63e
00000290: 8518 b53e 0490 8cbf 4003 debe 7fc9 c2bf
000002a0: 2bd9 d0be a92c a33e dd13 f13c d7c1 47bf
000002b0: cb98 623f fcb1 d1bd c45f 933f 2ae7 9abd
000002c0: cafe e8be 9e9b 9f3f d7c6 94bf 18e9 63be
000002d0: 6f7f f93e 2156 4b3e 986d 213f 34cb 283f
000002e0: 701c 7c3d 8572 3dbf 47d1 0b3e 7c20 a73f
000002f0: 3ccb 833e b97a 11bd 2ccd 313f c763 e73d
00000300: 66e0 9c3e 0899 173f 5e85 20bf 5772 313f
00000310: 93b1 84bf 9579 20be ce8b 3abf 0bcf 6fbe
00000320: 47c1 b2be 41b3 4f3f b955 083e 8a4a a0bd
00000330: 1439 6fbf 854d 9c3b 55eb 3f3f dd3f b53e
00000340: e6a5 153f 6966 9e3e 2bc6 e1be 1122 513f
00000350: 0a6c 02bf fc9c 0dbf 352b eabe d64d c53e
00000360: 428f 81bf 6166 acbc 95c7 083f 3ad5 15bd
00000370: 63cb 49bf a539 8bbe d8e1 883e f2eb 3b3e
00000380: 9614 8cbc 3c13 53bf 4d70 233f 1cce c5be
00000390: 227d 40bf 9488 f2bc 4eba bc3f f50f 6e3e
000003a0: 5461 b2be a598 ae3e 9e9d 2d3e 85f3 e6bc
000003b0: 1682 20bf 10bc 3bbf 9356 a3bd 47db 8a3e
000003c0: 52c1 6cbf d4e0 57be fddc 163f c067 843e
000003d0: ae83 563f 5024 b93e 7d9e 873f 473e 12bf
000003e0: ff62 043f b7de 263f 9a83 7f3f e7a5 d5be
000003f0: ab2b 373e afb3 073c 34d7 57be 38ab a6be

linear2.bias f4 [10]
-0.36404368 -0.17541 -0.2611012 -0.460894 0.14472175 0.46208072 -0.035964057 -0.05129821
0.31470555 0.22822006
00000000: ef63 babe ae9e 33be 0eaf 85be 4cfa ebbe
00000010: f031 143e d895 ec3e 0c4f 13bd 121e 52bd
00000020: 1621 a13e 85b2 693e
