mnist-logistic.pth (torch, 33373 bytes, 2 tensors)

linear.weight f4 [10, 784]
00000000: 1081 ce3c 8615 ad3c 0759 103d 01e8 0d3d
00000010: 54e4 213c e3ff b3bc 3c24 0dbc a029 46bc
00000020: ea9a 71bc 8433 06bc 92b9 d13c e4c1 363c
00000030: f94a ac3c 3d86 81bc 5e03 f63c 9606 ca3c
00000040: 8a98 bbbc ce21 ecbc f8e7 97bb 882d cc3b
00000050: bcc1 35bc 20bc 1d3c 0055 48bb ea6f 73bc
00000060: 5c93 11bc 4819 423c 1093 00bd 2243 f73c
00000070: dcbd aabb 0e74 04bd 00fc 7f38 a73b 003d
00000080: d77e 93bc be8a 8cbc f1ce 693c 5027 f23b
00000090: fae7 00bd 8d19 713b ffdd b0bc 3e19 8fbc
000000a0: f353 f6bc 52d0 cb3c 36e8 e9bc 6ae8 e53b
000000b0: 86c8 ad3c 032b 233c d9be c7ba c925 d9bc
000000c0: ebe7 263c 1c03 d4bb 60fc c53c ac73 80bc
000000d0: 50cb a8bc 6ed6 2dbc eef0 ce3c ce0e 85bc
000000e0: 9342 033d 3c1a c6bc 23bb 12ba bc79 713c
000000f0: 7b7f 0fbd 1566 8b3a 49af 30bc c849 f73c
00000100: a2ad 87bb 3368 c6bb 657e 02bd 6499 1a3c
00000110: bf38 ec3c dfc2 c8bc 5b74 6cbb 510b 17bd
00000120: 135f 15bd 5df9 8fbc 2eda 01bb 57d5 edbc
00000130: 0175 13bd ec12 073d 8bd8 64bc d077 543c
00000140: ed34 dabc a6eb c8bc 2044 8e3a bedd aabc
00000150: 620e e33c 943b 133c 8069 fcbb fc47 cdbc
00000160: 90cd 04bd f5fd 003b 5653 7fbb ea0d d63c
00000170: 0fed e63c c606 3ebc 5434 06bd 9fb1 e03c
00000180: d2c5 1fbd a49e dfbb c63d 36bd a51d a33c
00000190: a990 71bc aad7 15bc d54e 0dbd bf95 993c
000001a0: 5fab 7e3c 4af1 23bd 7de1 d93c efc3 51bc
000001b0: d393 e53c f0ae f63c 0917 6bbc 64ba f2bb
000001c0: cc8f a1bc 00cf 1439 2dc4 2f3b 1f0e b73c
000001d0: 2c0c e2bc 2669 7a3c 726e 05bd cc81 0dbd
000001e0: 7fbf 443c a98b 15bd 8bf5 0c3b 3939 efbb
000001f0: dd98 6eba 9474 10bd 8ffc 333c e337 2abc
00000200: 634f 053c 38dc 023d 7699 c9bc 30c7 033c
00000210: 6438 dbbc a5f5 07bd 524a ed3b f264 07bd
00000220: 77cd 85bc 24b3 893c 733b e73c bf4e 00bd
00000230: a0cc 54bb 241a 0d3c 5b46 053d 50c9 0bbd
00000240: cfda 08bd f1ea 19bd cd8a 7dba 568c 6c3b
00000250: c0af 2a3c 1bc0 25bd e4f3 843c 17c3 c2bc
00000260: 7630 91bc 1454 403d e761 033d 687c 493d
00000270: 5af6 ac3c 6569 443d fac5 503d 234f dd3c
00000280: b443 8a3c 8fc3 41bb d0b6 21bb 33b4 28bd
00000290: 63f0 63bc 308f 853c d39b f3bc 37b8 153b
000002a0: 4a87 05bd a37b 803b 4c71 4f3c 96d3 c33c
000002b0: f235 e0bc 1120 46bb f6f5 57bc e42f 36bd
000002c0: 65a0 6abc d3c6 f3bc b677 fcbc 359c b83c
000002d0: 1a8e c8bc c3fa 123d 9c8e 503d f852 383d
000002e0: fc43 0b3d eb7a 833d 4e37 4e3d 255c 313d
000002f0: c5a6 7a3c 38ee c0bb eeb7 11bd 57d4 323b
00000300: 8328 2ebd 4e0d 15bc d71d 27bc 39e4 dabb
00000310: 4893 61bc e21b 213c 342a 76bb ac72 e63c
00000320: 2117 0bbc 0d9e cd3c 7a9c 3ebd 4682 81ba
00000330: 572a 38bd e97f 21bd b1d2 483b ca33 90bc
00000340: 64db edbb 763f 1f39 559d d73c 5b37 f43c
00000350: 47b4 863d 593f 8e3d 8f72 ba3d 8d5f 503d
00000360: e9f2 d33c 012f bb3c 331e 213c 8b06 c53c
00000370: be8c d5bb b0e6 33bc 1cfa c2bb 2a1c f03b
00000380: a067 08bd bf72 b63c ba9e 823c 2652 c13b
00000390: 7d55 13bc e0e4 1b3c c694 17bd 87f9 c33b
000003a0: 2be5 3cbd be81 1bbd 4173 11bc 0ffc 223c
000003b0: 8d04 5b3c f2f6 5e3d cf09 543d 54f1 223d
000003c0: fd98 c5ba 136b 4e3d 9343 983c 1b39 953d
000003d0: e731 0e3d bd46 013d 6d55 2bbc 491e 2fbc
000003e0: 829d 07bd 1f41 c0bc 334c f63b fe7a cfbc
000003f0: 1ea2 e1bc 632f 663c 1695 d8bc 4539 1cbd
0.025208026 0.021128427 0.035241153 0.034645084 0.009881098 -0.021972602 -0.008614596 -0.012094885
-0.014746407 -0.008190993 0.025601182 0.011154626 0.021031843 -0.01581108 0.030030902 0.024661344
-0.022899885 -0.028824713 -0.004635807 0.0062310137 -0.011093553 0.009627372 -0.0030568242 -0.014858225
-0.008885231 0.011846848 -0.03139025 0.030183379 -0.0052106213 -0.03233724 6.103143e-05 0.03130689
-0.018004818 -0.017156001 0.01427053 0.0073899403 -0.03147123 0.003678891 -0.021590231 -0.017468091
-0.030069327 0.024879608 -0.02855311 0.0070162313 0.021213781 0.009958985 -0.0015239372 -0.026507275
0.0101871295 -0.006470097 0.024168193 -0.015680157 -0.02060476 -0.010610206 0.025261369 -0.016242411
0.032045912 -0.024182431 -0.00055973436 0.014738496 -0.035033684 0.0010635281 -0.010783979 0.030186549
-0.0041405717 -0.006054902 -0.03185882 0.009435985 0.028835652 -0.024506984 -0.0036080095 -0.036876027
-0.036467623 -0.01757496 -0.0019813883 -0.029032392 -0.036000255 0.03297703 -0.0139676435 0.012968019
-0.026636565 -0.024526428 0.0010854043 -0.020857688 0.02771682 0.0089863725 -0.0077030063 -0.025058739
-0.032422602 0.001968262 -0.0038959584 0.026129682 0.02818921 -0.011598295 -0.032764748 0.027428446
-0.039007016 -0.0068243314 -0.044492505 0.019911597 -0.014743962 -0.009145657 -0.03449901 0.018748162
0.015543788 -0.040025033 0.026596779 -0.012803062 0.02802459 0.030112714 -0.014348754 -0.0074074734
-0.019721888 0.00014191493 0.002681981 0.0223456 -0.027593695 0.015283858 -0.032576032 -0.034547612
0.012008547 -0.036510143 0.002150866 -0.0073005226 -0.0009101758 -0.035267428 0.010985508 -0.010389301
0.008136603 0.0319483 -0.024609309 0.0080430955 -0.026760288 -0.03319325 0.0072415257 -0.033055253
-0.016333325 0.016809054 0.02822659 -0.031325098 -0.0032470599 0.008612189 0.0325378 -0.034127533
-0.033411797 -0.037577573 -0.0009671867 0.003609439 0.010417879 -0.04046641 0.016229577 -0.023774667
-0.017723303 0.046955183 0.03207579 0.04919091 0.021113563 0.047952075 0.050970055 0.027015274
0.016877986 -0.0029566025 -0.0024675615 -0.041187476 -0.013912293 0.016303629 -0.029737389 0.0022845396
-0.032599725 0.0039209886 0.012661289 0.023904603 -0.027369473 -0.0030231515 -0.0131812 -0.044479266
-0.014320468 -0.029757893 -0.030818801 0.022535423 -0.024481822 0.035883676 0.050917253 0.045001
0.03400038 0.06419929 0.05034571 0.043300766 0.01529855 -0.005887773 -0.0355758 0.002728721
-0.042519104 -0.00909741 -0.0101999855 -0.0066800383 -0.013768025 0.009833308 -0.0037561776 0.028130852
-0.008489401 0.025099779 -0.046535946 -0.0009880743 -0.044962253 -0.039428625 0.003064316 -0.01760282
-0.0072588194 0.00015187063 0.026320139 0.029811552 0.06577354 0.06945676 0.091038816 0.050872374
0.025872665 0.022849562 0.00983386 0.024050971 -0.006517022 -0.010980293 -0.0059502255 0.007327576
-0.03330195 0.022271512 0.015944827 0.0058996854 -0.00899255 0.009515017 -0.037007116 0.0059806737
-0.04611699 -0.03796553 -0.008877576 0.009947791 0.013367784 0.054434724 0.051767167 0.03978093
-0.0015075501 0.050395083 0.01858691 0.07286283 0.03471556 0.031561602 -0.010457379 -0.010688373
-0.033109196 -0.023468552 0.007516408 -0.025327202 -0.027543124 0.014049384 -0.026438277 -0.038140554

linear.bias f4 [10]
00000000: 5a4b 7ebd e116 a13d 4936 ecbc 0ef9 58bc
00000010: 4b39 133d e97f 653d 8e62 1c3b c382 863c
00000020: b225 c3bd ae67 f0bc
-0.06208358 0.07865692 -0.028834479 -0.013242973 0.03594331 0.056030188 0.0023862454 0.016419774
-0.09528674 -0.029346313
